examples/Tensorflow Lite/tf_model.tflite (tflite, 408312 bytes, 4 tensors)

sequential/dense/MatMul/ReadVariableOp/transpose f4 [128, 784]
000000 3d 7b 9e 3c dd eb 37 bd 7c e7 05 3d 5c e2 51 3d
       0.019345874 -0.04490267 0.032691464 0.051241264
000010 89 1b 11 bd a1 2f c8 bc 9f 62 a9 bd 38 be 29 bc
       -0.03542665 -0.024436774 -0.082707636 -0.010360293
000020 38 a1 1e 3e 8b 12 21 3e 65 3c b3 3d a4 c4 27 be
       0.15491188 0.1572973 0.08751754 -0.16383606
000030 a6 a9 09 be 27 4f 56 be eb b0 92 be 2d 79 5e be
       -0.13443622 -0.20928632 -0.28650603 -0.21725912
000040 bf e5 57 be 3e 8c 93 bd 6a c5 10 3e 38 c3 82 3d
       -0.21083735 -0.072044834 0.14137807 0.06384891
000050 47 6a fd bc 37 87 3e be c9 67 75 bd 33 ba d9 bc
       -0.030934466 -0.18606268 -0.05991343 -0.026578045
000060 e2 c8 a7 3d 23 4b c9 bb 9f 49 80 bd 5d e8 54 3c
       0.08192612 -0.00614299 -0.06264042 0.012994853
000070 68 ef 15 bd 95 ff 81 bd c6 d1 6d 3d a0 79 e1 bc
       -0.03660527 -0.063475765 0.058061384 -0.027523816
000080 21 61 92 3c 33 67 82 3d 8b cf 47 bd c0 d2 bb 3d
       0.01786858 0.0636734 -0.048781913 0.09171057
000090 66 b1 01 3e 14 6a f4 3d 39 37 88 bd e3 b5 e9 bb
       0.12665328 0.11934295 -0.06651158 -0.0071322783
0000a0 50 00 a7 bd 8b 65 12 be d0 43 50 be bc e7 03 be
       -0.081543565 -0.14296548 -0.20338368 -0.12881368
0000b0 92 b8 e1 bd a4 46 81 3d 77 62 00 bd 32 99 8d 3d
       -0.11021532 0.06312302 -0.031343903 0.06913985
0000c0 d3 ea 1c 3e da 75 8d 3d aa 40 25 bd 26 6a ca 3c
       0.15323953 0.06907244 -0.04034487 0.024708819
0000d0 d9 af 5a 3d 56 2b 86 3d 6e 10 f4 bb 64 ca ce 3c
       0.053390358 0.065512344 -0.0074482476 0.025242992
0000e0 5d 25 87 3d 70 b1 af 3d c1 5e 9b 3d 24 3a 9a 3c
       0.06598923 0.085787654 0.07586432 0.018826552
0000f0 4d 18 51 3d f2 bb 81 3d 38 8d e5 3d ef b7 29 3e
       0.051048566 0.06334676 0.11208576 0.16574071
000100 e0 20 cc 3b 1b f1 89 3d 79 5d a9 bd 1d 5d 84 bd
       0.006229505 0.0673544 -0.082697816 -0.064630724
000110 05 36 5e 3d 54 c9 81 bc 5f 47 04 be 29 5c 5b bd
       0.054250736 -0.015843071 -0.12917851 -0.053554688
000120 d4 ff 17 bd 08 d9 96 bd 54 4a bb 3c 31 9f 4e 3d
       -0.03710921 -0.07365614 0.02286259 0.050444786
000130 e1 8b 6a 3d b6 12 bd 3d 70 c6 15 3e bc ab 88 3d
       0.057262305 0.092320845 0.14626479 0.06673381
000140 4a 94 d4 3d e4 48 19 3d 1e 36 69 3c 46 71 81 3d
       0.103798464 0.03742303 0.014234094 0.06320433
000150 26 07 bf 3d 89 5c 1f bd ee 62 3b 3d 77 b0 b7 3d
       0.09327535 -0.038906608 0.045748644 0.08969205
000160 9d 3f 26 3d d2 22 04 3e 14 9f 47 3d 91 ba 81 bd
       0.04058801 0.12903908 0.048735693 -0.06334413
000170 17 41 dc 3d 5a 9c 36 3c 9e 49 6a bd a5 35 76 bd
       0.107546024 0.011145676 -0.057199113 -0.060109753
000180 a6 b7 a3 bc d4 35 b4 bd a9 b4 44 bd c4 ba d3 3c
       -0.019985031 -0.087993294 -0.048023853 0.025845893
000190 a9 1a a3 bd 3a cc 61 3b 19 ec d0 3d 1a 7e e2 3d
       -0.079640694 0.0034454004 0.10201282 0.11059208
0001a0 79 fa a0 3d be a9 64 3d 4c c9 b9 3d 0a fe d2 3c
       0.07860274 0.05582594 0.090715975 0.0257559
0001b0 2a 89 01 3c be e9 b4 bc 8b a5 ad bd 17 0f 6b 3c
       0.007906238 -0.022084113 -0.084788404 0.014346859
0001c0 be ea 10 3d c0 c2 c4 3c d0 f2 e8 3b b4 78 33 3d
       0.035380118 0.024018645 0.0071090236 0.043816283
0001d0 6d c6 c9 3c d2 45 3a bd db 9b 86 3d 2c c1 eb bc
       0.02463075 -0.045476742 0.06572696 -0.028778635
0001e0 e0 9d ad 3d 4a ba 5c bc 32 b7 c4 bd 9a 4d 82 bd
       0.08477378 -0.013472149 -0.09605254 -0.063624576
0001f0 38 66 e2 bd a6 94 a2 bc a0 40 9a bd 68 17 15 3d
       -0.11054653 -0.019846272 -0.075318575 0.036399275
000200 a0 99 f3 3c 0e 94 89 3d 1d d0 a3 bc 8b d3 c5 bc
       0.02973634 0.06717692 -0.019996697 -0.024148723
000210 b0 e7 8b 3c 5c a8 67 bd de 48 04 3d 84 ad 64 bd
       0.01707825 -0.056557044 0.032296054 -0.05582954
000220 cc c6 21 bd 59 c2 b6 3c d0 c3 02 3b 4f 98 60 bd
       -0.039496228 0.022309469 0.001995314 -0.054832753
000230 0e 26 ac 3c d7 15 9e 3d 5a 75 49 3d 1d 7f e6 3d
       0.02101424 0.07719009 0.04918418 0.11254714
000240 cf 4a 1d 3d fe 03 95 3d d0 60 3b 3c 43 e4 9e bd
       0.03840142 0.07276152 0.011436656 -0.07758381
000250 25 1d 1a bd 4d a1 35 3d ca d4 0c 3d 61 99 51 3d
       -0.03762545 0.04434328 0.03438262 0.051171664
000260 78 b4 0b 3c ee bb 54 bd a5 cf 96 bd 6d 7f 60 bc
       0.008526914 -0.051937036 -0.07363824 -0.013702256
000270 26 bd 4a bb 6c 05 37 3d 17 76 1b 3d 7a 4f b1 3d
       -0.0030935495 0.044682905 0.037954416 0.08657737
000280 84 c8 f2 3c c1 bf 98 bd dc a3 9d 3d 12 97 e6 3c
       0.029636629 -0.07458449 0.07697269 0.028148208
000290 df fb cc bb 4b 0d e9 3c 77 e6 13 3d 5b 23 43 bd
       -0.0062556113 0.028448721 0.03610846 -0.04764114
0002a0 e2 98 a5 3d 35 c1 81 3c fa 4b 37 3e 2a e0 90 3d
       0.08085801 0.015839199 0.17900077 0.07074006
0002b0 01 c1 ab 3c b0 16 82 bc 28 55 07 3d 7c fe 89 bd
       0.020966055 -0.015879959 0.033040196 -0.06737992
0002c0 dd df ca 3d dd 80 37 3a f4 9e 2c bd a4 be ae 3c
       0.0990598 0.0007000098 -0.042143777 0.021331139
0002d0 bf 1d 33 3d ba d8 1e bb 7e 1e a8 bd ce 09 8b 3d
       0.04372954 -0.0024238066 -0.08208941 0.067889795
0002e0 76 92 c8 bd b6 cc 67 3d 53 08 e5 3d 02 de 3b bd
       -0.0979356 0.056591712 0.11183228 -0.04586602
0002f0 85 dd 67 bd 38 25 4a 3c 7e 66 b9 3c dd 81 8e 3d
       -0.05660774 0.012337975 0.02263188 0.06958363
000300 48 19 f1 bd b0 b6 bd bd 16 69 56 3d a5 78 68 bd
       -0.117724 -0.092633605 0.05234631 -0.05675568
000310 71 7c 75 3d 5e b2 ec 3d 51 8e 1a 3e 03 81 06 bc
       0.05993313 0.11557458 0.15093352 -0.00820947
000320 e9 46 53 3d 0f 46 9c 3b f8 37 04 bc ad 14 db bc
       0.051581297 0.004769094 -0.008069985 -0.026743257
000330 71 b6 1f 3d 6b 14 bf 3d 76 2d 36 bd 41 f1 8b bd
       0.03899235 0.09330066 -0.04447695 -0.06833125
000340 b4 e9 ca bc d5 54 06 3d 4e 4d 86 bd 23 d9 0b bb
       -0.024769641 0.032795746 -0.065577134 -0.002133914
000350 75 75 c7 bd 81 93 66 3d 53 51 39 bd 78 d9 89 bc
       -0.097392 0.056293014 -0.045243572 -0.01682733
000360 8f a8 fa 3a 09 ca b0 bc 04 82 cd 3a 58 1a 46 bd
       0.0019123721 -0.021580713 0.0015679006 -0.048364967
000370 df 4b ed bc ac 37 c2 bd 7a 8e 9c bd 16 c6 04 bd
       -0.028966842 -0.09483275 -0.07644363 -0.032415472
000380 ec 1e db bc c8 e3 97 3d cb 65 98 3d 84 d0 4d 3d
       -0.026748143 0.07416493 0.074412905 0.050247684
000390 4a fb a0 bc fa 84 14 3c c7 0e 86 3d d0 47 da bc
       -0.019651074 0.009064907 0.06545787 -0.026645571
0003a0 d1 27 10 3d bf 45 7f 3d ba 10 aa 3d 9f 16 42 3b
       0.035194222 0.062322374 0.083039716 0.0029615534
0003b0 3c 68 51 bc cb 22 95 3d 4d 04 8f 3c 4b c5 5f bc
       -0.012781199 0.07282027 0.017458105 -0.013657878
0003c0 8e fd 2f 3b 3a 28 7e bc bb 2a bc bc 6a ea 8e 3c
       0.0026854011 -0.01551252 -0.022969594 0.017445762
0003d0 a7 85 8c 3d f7 60 d8 bd 82 75 1d bd 34 ee 0e 3c
       0.0686143 -0.105653696 -0.038442142 0.008723784
0003e0 26 71 dc bc e7 46 03 3d c4 2d a1 bc ea fe 3d 3d
       -0.026909422 0.03205004 -0.019675143 0.046385683
0003f0 d7 b9 03 3e 63 b5 18 3e 22 09 cf 3d d0 85 90 3c
       0.12863861 0.14912944 0.10109164 0.017641932

sequential/dense/MatMul_bias f4 [128]
000000 3b 8c 1d 3e 40 49 a6 bc 54 22 69 bc 71 93 e5 3d
       0.15385525 -0.0202986 -0.014229376 0.11209763
000010 ef 49 0c be 40 0c 5f bd 36 70 73 be 77 ba 22 3e
       -0.13700078 -0.054455042 -0.23773274 0.15891443
000020 49 32 9d 3d 77 17 a7 3c f3 ca a0 bc d0 68 e0 3c
       0.07675607 0.020396931 -0.019628024 0.027393728
000030 05 a4 a5 bd 8b 10 08 3d 4a e1 23 bd e0 fb 25 3d
       -0.08087925 0.0332189 -0.040009774 0.04052341
000040 7c 54 64 be 54 7b bf bc 15 88 2c 3e a4 3b 1d bc
       -0.22297853 -0.023374237 0.16848786 -0.009596739
000050 3a 9a 51 bc e7 61 8f 3d a3 49 1f 3e 6b 64 b0 bc
       -0.012793118 0.07001095 0.15555434 -0.021532258
000060 48 01 31 bc 66 16 9e bc 47 cb d0 bc ff fa 5f 3e
       -0.010803528 -0.01929779 -0.025487555 0.21873091
000070 70 bd 88 3e c9 ea 9f 3d 1e fe f5 3d e4 97 dd 3d
       0.2670703 0.078084536 0.1201136 0.108199865
000080 f3 cf 27 bd f3 24 21 be f9 a9 8b 3e e8 04 0f 3e
       -0.0409698 -0.15736751 0.27278116 0.13966715
000090 4a 53 78 3e 43 5f 96 3d 70 05 01 3e d7 27 c6 3d
       0.24250522 0.073423885 0.1259973 0.096755676
0000a0 b7 b0 c8 bd 47 1a cb 3c c3 c1 69 bc c0 61 59 bc
       -0.09799331 0.024792803 -0.014267388 -0.013267934
0000b0 e3 0e 94 3e e2 7e ea 3d 72 03 0c 3e 79 5b a2 bc
       0.28917608 0.11449982 0.1367319 -0.019819008
0000c0 b0 3f fa 3d 2e 92 3a 3e 1c bd c2 bd c1 4d ef bd
       0.12219179 0.18219826 -0.09508726 -0.11684752
0000d0 28 83 3b be 70 70 44 be fb b8 84 bd c7 d7 2a 3e
       -0.18311751 -0.19183517 -0.06480595 0.16683875
0000e0 fe ed 6d 3e 0a d7 19 3e 82 f2 ac 3e 09 c0 9c 3d
       0.23235318 0.15023437 0.3377877 0.07653815
0000f0 e9 3f cd bd 0f 94 1a bc fd e7 67 3a a9 13 fc 3d
       -0.100219555 -0.009434714 0.00088465196 0.123084374
000100 2e 11 72 3e 27 c0 0d be c6 79 39 3d d8 e2 86 3e
       0.23639366 -0.13842832 0.045282148 0.26344943
000110 74 e9 7c 3e e7 7a 4d bc 0d c9 03 3d 76 f8 c2 bd
       0.2469843 -0.012541509 0.03217416 -0.095200464
000120 16 c4 82 3d c8 be 60 bb be 0f f3 bd 1e 78 e5 3c
       0.06385057 -0.0034293402 -0.11868237 0.028011378
000130 bb 79 88 bc 86 de 93 3c 62 78 70 bc db 0e c3 bc
       -0.016659608 0.018050443 -0.014677139 -0.023810795
000140 3e b8 b4 3d 14 af 59 3d 32 df 60 3e d4 e2 de 3d
       0.08824204 0.053145483 0.21960142 0.10883108
000150 f8 e4 63 3e 73 20 33 3e 89 04 ef bd 10 7d 6f 3e
       0.22255313 0.17492847 -0.11670787 0.23387551
000160 3a 9d 67 bc 72 ab 01 3e cb 7f 60 3e f0 f1 a1 3e
       -0.014136607 0.12663057 0.21923749 0.31629896
000170 5f d8 65 3e 3b 20 88 3d cd 7e 82 bc 77 b4 ed 3c
       0.2244582 0.066467725 -0.015929604 0.029016716
000180 20 e0 89 3d 91 58 a1 3d c2 43 a0 bc 5c 54 d8 bc
       0.067322016 0.07878221 -0.01956356 -0.026407413
000190 24 5e e9 3d 07 24 49 3d b6 9c 25 3e 18 64 3f 3e
       0.11394909 0.049106624 0.16173062 0.18690526
0001a0 4f ba ad 3d f3 13 58 3e 0d 9e 87 bc a2 e4 32 3e
       0.08482801 0.2110136 -0.016554857 0.17470029
0001b0 93 00 18 3e d0 8f 7b 3c 53 93 d3 bc b9 3e 51 3e
       0.14843969 0.015354112 -0.025827086 0.20434083
0001c0 6f 60 97 3c 8d 7c b5 3e df a3 80 bb 89 7d 23 3e
       0.0184786 0.35446587 -0.003925785 0.15965857
0001d0 f7 f6 bc bd 34 ce de bc 74 51 31 bb d0 11 40 3e
       -0.09226792 -0.027197935 -0.0027056606 0.18756795
0001e0 91 a2 e2 bd 1a ef a6 bc 2b 6b b9 bb 9c 28 76 bb
       -0.11066163 -0.020377684 -0.0056585274 -0.0037560826
0001f0 92 ab 36 3e c4 98 56 3e 99 46 62 bd e1 a9 59 3e
       0.17838886 0.20956713 -0.05524311 0.2125621

sequential/dense_1/MatMul/ReadVariableOp/transpose f4 [10, 128]
000000 f5 1a 19 3e 06 66 bf bd 68 36 14 be 6c 40 97 bd
       0.1495169 -0.09345631 -0.1447388 -0.07385334
000010 18 5f 83 3d 11 b0 45 bd c6 2b 1f be 0e fd 1d 3d
       0.06414622 -0.048263613 -0.15544042 0.03857141
000020 e2 52 28 be 75 e7 3e be 92 6e c5 bc 2d a9 66 3d
       -0.16437867 -0.18642981 -0.024100576 0.056313682
000030 ae 1e 8b 3d bf c3 0b 3d 47 a4 f2 3c 07 03 46 3d
       0.06792961 0.034122225 0.02961935 0.04834273
000040 8a 51 8e 3d ee c4 ea 3d ef 50 20 bd 99 9a 40 3e
       0.06949146 0.114633426 -0.039139684 0.18808974
000050 b0 72 dc bd f2 21 5b be 95 2c 12 3e 36 56 8f be
       -0.107640624 -0.21399668 0.14274819 -0.2799546
000060 be 10 83 bc 56 49 b5 3d 1f 3a 8b bd bc 07 5a 3e
       -0.015999194 0.08851878 -0.06798195 0.21292013
000070 81 95 4d 3d 00 25 5a 3e dc bf 04 be 6a 33 55 be
       0.050191406 0.21303177 -0.12963814 -0.20820394
000080 09 c8 1c be 9c 8d 47 be 5f b9 26 3e 7b 33 08 3e
       -0.15310682 -0.19487613 0.16281651 0.13300888
000090 32 dc 05 be 85 96 aa 3d 7c 8b 2b 3e a4 13 77 3e
       -0.13072279 0.083294906 0.16752428 0.24128586
0000a0 b8 35 34 be 07 e3 85 bd 23 9e 2a ba 3f 33 45 3e
       -0.17598617 -0.06537443 -0.00065085496 0.1925783
0000b0 6e 55 d5 bd c9 ab cd 3d 5b d2 3f be c7 8d d5 bc
       -0.10416685 0.10042531 -0.18732588 -0.026068581
0000c0 38 c9 c5 bd c3 ca 1b 3e 13 dd 9f bd a9 f1 1b be
       -0.0965752 0.15214066 -0.078058384 -0.15228905
0000d0 20 e1 bf bd c4 93 60 be e0 67 24 3d 85 37 8c 3d
       -0.09369111 -0.21931368 0.040138125 0.06846527
0000e0 b3 48 e2 bd 0a 0d 5d 3e 32 9c f4 be d2 18 50 be
       -0.110490225 0.21587005 -0.47775418 -0.20321968
0000f0 06 76 dd bd ce 93 50 be 3c 84 3a be 2d 5f 02 bb
       -0.10813527 -0.20368883 -0.18214506 -0.0019893155
000100 4b fc 9a 3d 55 53 34 be 11 9c 46 be 1e ad cf bc
       0.07567652 -0.17609914 -0.19395472 -0.025351103
000110 a1 a6 b0 3c 33 61 b2 bd 92 b0 c7 3d f4 93 c9 3b
       0.02156383 -0.087099455 0.09750475 0.0061516706
000120 8a 66 9e be 30 74 aa 3d 18 aa 87 bb 8f 6e 81 bd
       -0.30937606 0.08322942 -0.00414015 -0.063199155
000130 68 0f 43 be 17 fb f2 3c 12 8a cc bd 50 2e 29 3e
       -0.19048846 0.029660745 -0.09987272 0.16521573
000140 7c e5 1d be d3 6f 3d 3e a0 f2 58 3e a5 9e d3 3d
       -0.15419573 0.18499689 0.21186304 0.103329934
000150 8c 61 c3 bd 35 8f 31 3e f6 e9 0b 3e 80 3e 8d bd
       -0.0954009 0.17339785 0.13663468 -0.068966866
000160 f5 f3 e0 3d da d1 1b 3e 45 99 12 be 93 c0 4b be
       0.10984031 0.15216771 -0.1431628 -0.1989768
000170 a2 1f e8 bc 6d f6 92 bd fc 91 08 bd 7c e3 4a bb
       -0.028335396 -0.07175908 -0.033342347 -0.0030958345
000180 12 eb 28 be da c5 39 3c 82 6a 5e be 86 c4 3e 3e
       -0.16495922 0.011338675 -0.21720317 0.18629655
000190 4c dc a5 be 39 20 0b bc f8 52 46 3e b5 26 8c 3d
       -0.32394636 -0.008491569 0.19367588 0.0684332
0001a0 aa fb b3 bd 9a 79 09 be 4e 31 3b 3e f6 6d b6 3c
       -0.087882355 -0.13425294 0.18280527 0.02226923
0001b0 11 d6 fd bc 17 12 95 be 76 30 06 3e 24 75 ec bc
       -0.030985864 -0.29115364 0.13104424 -0.02886445
0001c0 3d 9b 54 3e 23 de ac be 3d fe 19 3e f0 bc fb bd
       0.20762344 -0.33763227 0.1503839 -0.12291896
0001d0 80 38 b5 bd 13 72 46 be 81 a3 7e 3c 80 86 4b 3e
       -0.08848667 -0.19379453 0.015541912 0.19875526
0001e0 c2 63 47 3d c4 81 56 be 74 fc e8 3d a3 91 46 3d
       0.04867912 -0.20947939 0.113762766 0.048478734
0001f0 65 8d 14 be fb 63 6e bd 51 95 0b be d5 ab e7 3d
       -0.14507063 -0.058200818 -0.13631178 0.11312071
000200 e9 62 08 be 6d 43 15 be 1a 00 32 be 6f a8 3f be
       -0.13318981 -0.14576502 -0.17382851 -0.18716596
000210 36 9a 06 be 99 04 4e 3e b6 5e d8 3d ec 1a bd be
       -0.13144764 0.20118941 0.1056494 -0.36934602
000220 b2 82 0a be 1e 38 a3 3e 0f e2 19 bd c5 47 76 3e
       -0.13526419 0.31878752 -0.037569102 0.24050815
000230 39 7f f4 3d e9 0c 50 be 02 6c 92 bd 45 26 04 bc
       0.11938328 -0.20317425 -0.07149507 -0.008065765
000240 57 a5 92 3e dd 48 cf 3d 84 6d 9c be 7c d6 2c be
       0.2864177 0.101213194 -0.30552304 -0.16878694
000250 71 8d 8c bc e6 0f 1b 3e cb d2 a0 3d 3f 81 3a 3e
       -0.017157288 0.15142784 0.078527056 0.18213366
000260 43 4c 03 be 69 ec 1a be 93 88 a5 be 80 dc 0d 3e
       -0.1282206 -0.15129246 -0.3233076 0.13853645
000270 5e 8c 3e be d9 7c 0e 3e db 2f bd 3e 7b 03 66 be
       -0.18608233 0.13914813 0.36950573 -0.22462265
000280 31 e3 a6 3d ea 1c b6 be 16 e7 ac be 20 ba fe 3b
       0.08148802 -0.35568935 -0.33770055 0.0077736527
000290 d6 53 ad be cc 7f 8a be 58 9c a6 be bd a9 59 3d
       -0.33853024 -0.27050626 -0.32541156 0.05314039
0002a0 00 44 75 3e 4c ec 04 3e 71 51 7e 3d 71 5c 11 3e
       0.23951721 0.12980765 0.062089387 0.1419542
0002b0 62 89 56 3c 54 5c 32 be 63 d9 58 be 69 05 21 3e
       0.013094278 -0.17418033 -0.21176676 0.1572472
0002c0 14 6a 88 3e af e5 6b be 2a a7 90 be d9 24 1f be
       0.2664343 -0.23036836 -0.28252536 -0.155414
0002d0 32 ff 01 3a 3e f8 0e be d9 0b 9a 3d ec 5c 28 be
       0.00049589865 -0.13961884 0.07521791 -0.16441697
0002e0 97 01 f3 3d 56 61 24 3d bc 67 a0 be f3 07 68 be
       0.118655376 0.04013189 -0.31329143 -0.22659282
0002f0 fe 61 33 be fd 7b d5 3d d5 5d 3a be 6a d0 79 3e
       -0.1751785 0.104240395 -0.18199857 0.2439591
000300 0b 80 fd bd c3 43 9a be b3 ea 9a 3d 6a 40 26 be
       -0.12377938 -0.30129823 0.075642966 -0.1623551
000310 44 c7 8f be 58 67 b1 bd 22 bd b1 bd 68 62 81 be
       -0.28081715 -0.086622894 -0.08678652 -0.2527039
000320 45 04 2f 3e 78 9c 83 be 34 20 a3 be 0b ae 7b be
       0.17091472 -0.25705314 -0.31860507 -0.24578111
000330 85 5f a9 3d 40 a4 80 3e 68 e4 50 3d 5d ed 74 3e
       0.08270172 0.25125313 0.050999075 0.23918672
000340 ac 6a 99 3e bb 8b 3b 3e 95 49 6d bd d5 e5 89 be
       0.29964197 0.18315022 -0.0579315 -0.2693316
000350 14 74 35 3d 2f d3 93 be 2e 84 41 3e bf bb 44 3e
       0.044300154 -0.28872058 0.18898079 0.19212244
000360 a3 35 fc bd 45 03 a7 3d f2 79 31 be 42 8b 0f 3d
       -0.12314918 0.081549205 -0.17331675 0.035044916
000370 69 01 ae be f0 7c 40 3e 5b ab 1e 3e 98 54 a1 bd
       -0.3398545 0.1879766 0.15495054 -0.07877463
000380 87 00 01 bd 0d c8 d7 bc 1b a2 c7 bd 36 84 4f be
       -0.031494644 -0.026340509 -0.09747716 -0.20265278
000390 0f da 7d be 5d 37 4a 3e 8d 8c ec 3d 37 3d 8c be
       -0.24790214 0.19747682 0.115502454 -0.27390453
0003a0 5e 37 29 bc b0 48 f2 3c 5e 07 60 bc ac b0 da bd
       -0.010328142 0.029575676 -0.0136736315 -0.10678229
0003b0 98 e5 7d bc f4 62 2a be 07 b1 99 3d 1e 81 58 3e
       -0.015496634 -0.1663931 0.075044684 0.21143004
0003c0 af 41 63 3e 0c 08 b6 be b5 c7 95 3d 6e d2 3d be
       0.22193025 -0.35553014 0.07313482 -0.18537304
0003d0 34 ff 1b bd b4 9b 34 bc 8b c6 eb 3d 56 07 84 bc
       -0.038085178 -0.011023451 0.115124784 -0.01611678
0003e0 40 62 b3 bd 8a 36 a4 3e c1 d3 d0 3d 64 29 99 be
       -0.08758974 0.3207286 0.10196639 -0.2991439
0003f0 8a b0 9e be 8c 4b 32 be 4d 31 cf 3c a8 76 b7 bd
       -0.30994064 -0.17411631 0.025292063 -0.08958179

sequential/dense_1/MatMul_bias f4 [10]
000000 0d 73 21 3d 36 7f 04 be 2d b7 2b 3d 16 50 94 3d
       0.03941636 -0.12939152 0.041922737 0.07241838
000010 ee f2 04 be 1b ac 73 3e 4e 69 99 3d 8d 30 b4 3a
       -0.12983295 0.23796122 0.074907884 0.0013747379
000020 e8 cf fb bd 61 f8 87 be
       -0.12295514 -0.26556686
